models/mlp_spy_itm.pt (torch, 13637 bytes, 5 tensors)

net.0.weight f4 [64, 7]
00000000: dca3 c4bd 50b5 95bd 5267 013e eb45 1fbf
00000010: e03f d03e aa87 ab3e fabd e63e 177d 2dbe
00000020: 3dc1 d1be c798 693d f2da f33c e845 853e
00000030: 8c57 bf3d 9017 e43d 2e80 053f 7b6f 80bd
00000040: 0a82 2abd c8a9 d5be f895 60be 9042 613e
00000050: 00a6 3ebf 97f9 04bf b7f7 b4be cc5a 05bd
00000060: 049c c93d 5330 e03e a0ff bdbd 90e1 d9bc
00000070: 0f9c c33e c40e 863e b971 1d3e f9d1 da3e
00000080: 2e02 c7be fc3d ae3d f5c8 9ebc cb26 133e
00000090: 8de7 8fbe bf43 d1be 4494 a83e 512e 143e
000000a0: 844e 9d3e 9d66 9a3d 88d3 7c3e e38e c93d
000000b0: a86c 283d 2431 64be 6505 d7be d4c9 2abe
000000c0: 329c 5b3e e078 09bf a909 08bf e615 253e
000000d0: 79c7 2a3e f727 5e3e b61f 81be a238 3a3e
000000e0: feba 66bd a109 933e c93d ab3e 508b af3d
000000f0: d693 b7bd c461 c93d afbf fe3e a1c4 7cbe
00000100: b0a4 1fbf 4f5e 20be 54b6 9f3e 6cde 363e
00000110: 3ef8 df3b 60b7 993e 0efc 15bd 348d 513d
00000120: e533 f63e 1725 63bd 3731 673c 4a07 a3bd
00000130: ba28 813e 6c60 a4be 15c2 f13e 6955 353d
00000140: 68ef f2bd effb a73c eeab 3c3d 456a 933e
00000150: a5f6 c8be 91b6 fabe 167a b2be 6b47 a03e
00000160: 8dba d03e fd64 3d3b 8af9 4f3e eaea c8be
00000170: d657 03bf 2f10 eb3d 28ca 873d 9d42 cd3e
00000180: df3a 153b e56c ebbe e0ff 36be 1040 e2be
00000190: 9f6c 033f bdc9 803c 6d33 393e 931c 6f3a
000001a0: dbdc d1be 3c98 8f3e 332e 0cbf 428c 133d
000001b0: 33a6 f63d dd2e c93e e0d6 6dbd 8918 edbd
000001c0: a272 abbe 3587 853c 20e5 1a3f 79bf b83e
000001d0: 73ea a83e 14c8 f13d 46de e8be 6fcd abbe
000001e0: 66a8 46be 784a 2d3f c01d 413e 7717 37bd
000001f0: 0380 6abe ddbd 3fbe 871c eebe 52be 223e
00000200: c808 2cbf 9fbe 86bd 9680 ad3d da8f 88be
00000210: 279a 5a3d 0801 a63e d0d7 323d 4231 b9bc
00000220: 8b1b bcbe 421e 72bd d52e 04be 779c 4a3e
00000230: 8d10 0a3f cbfc 1a3f 0851 4bbe 7b75 efbd
00000240: 5d99 273d f99d ba3d 6acc d9be 2d79 ce3e
00000250: b2fd a9be 28af 0a3c c572 803b 1ed3 713d
00000260: 459e 643e c8ce 283e 5ee5 c2bc b99c 82be
00000270: b079 0d3e edac 1db9 b235 d63e 6873 4a3e
00000280: f5b5 2bbf 60f7 203f 53d0 08bf ce04 233e
00000290: 3506 143e 9eba 133e 59c8 8bbe ff5c 793d
000002a0: 76ed 793d 2bc2 203e 947a 923e 5c35 29bf
000002b0: 3146 e0bc a7a2 503d 8e88 ad3e 965d 893e
000002c0: b723 c1be 181b 29bf d1af 27bf 08de 74be
000002d0: c54b bcbd 73b1 bfbe 3a4c 8abe f5f5 d63e
000002e0: 9ba7 043f c989 7cbe bf23 25be 1ed9 8d3e
000002f0: 9614 54bd b1b9 ce3d afc4 403e bb97 e3bd
00000300: 67d8 10bd 1d2c fd3d d7c3 573e 81ce dabc
00000310: 9669 c5be db50 11be c1f6 2abd 7bca 8e3e
00000320: 4d6a 433d b174 0abe 559a 9cbe acaa 3bbd
00000330: a12b bc3c 4a10 043f be0b 4cbe 62a5 813d
00000340: 22eb eebd 0f71 983e 2800 eebe cc95 d0be
00000350: 9a62 fa3d be13 813d 564e 013f 7938 dfbd
00000360: 032b 963e ff12 6b3e e234 9fbe 0d73 2e3f
00000370: 1fec 133e 9e4b c1bd 0cd0 943e e84c 9a3e
00000380: d1b4 d03d 1275 ab3d 5ade 933e da9f 25be
00000390: b989 ab3e 136d 1e3e 8447 4fbf 91ae 83be
000003a0: 2888 533c 75c4 e33e b9ee c13e 1cd0 6c3e
000003b0: 3b7d d63c 1eee 02bf 0db1 dd3e 43bf 96be
000003c0: d810 723d 7d1c c43d 8dc8 903e b86e 35bd
000003d0: ec7f de3d 0a30 c3be dbe7 efbe 7862 28bf
000003e0: 6fcc d93e 1244 ca3e 20d0 583d e86d 5b3e
000003f0: 659d 883b 10ad ebbd e7ff 5e3d d974 95be
-0.09601566 -0.07309973 0.1263707 -0.6221606 0.40673733 0.3350194 0.45066816 -0.16942249
-0.40967742 0.057030465 0.029767487 0.26029897 0.0934287 0.11137307 0.5214871 -0.06271263
-0.04162792 -0.41731095 -0.21932209 0.21998048 -0.74472046 -0.51943344 -0.3534524 -0.032557294
0.09844211 0.43786868 -0.09277272 -0.026596814 0.38205 0.2618314 0.15375413 0.4273832
-0.3886885 0.08507916 -0.019382933 0.14370267 -0.28106347 -0.40872 0.32925618 0.14470793
0.30723965 0.07539103 0.24690068 0.098417066 0.041119248 -0.2228437 -0.41996303 -0.16678554
0.21446303 -0.53700066 -0.5313974 0.16121635 0.16677655 0.21694933 -0.25219506 0.18185666
-0.056330673 0.28718284 0.33445576 0.085714936 -0.08963744 0.098331004 0.49755618 -0.24684383
-0.6236067 -0.15660976 0.31193793 0.17858285 0.0068350127 0.30022717 -0.03661733 0.051160052
0.48086467 -0.055455294 0.014110855 -0.07960375 0.25226384 -0.32104814 0.47218385 0.044270907
-0.11862069 0.020505873 0.046062402 0.28792015 -0.39250675 -0.48967412 -0.3485877 0.31304488
0.40767327 0.0028899305 0.20310035 -0.39241725 -0.513059 0.11477696 0.06630355 0.40089884
0.0022770686 -0.45981517 -0.17871046 -0.441895 0.5133762 0.015721196 0.18086024 0.00091213844
-0.40988812 0.28045833 -0.54757994 0.036022432 0.12043419 0.39293566 -0.05806625 -0.11576945
-0.33485895 0.016299823 0.60505867 0.36083582 0.3299137 0.1180574 -0.4548208 -0.3355517
-0.19400176 0.67691755 0.18859005 -0.044700112 -0.22900395 -0.18724771 -0.4650614 0.15892914
-0.672009 -0.06579327 0.084717914 -0.2667225 0.053369667 0.32422662 0.043662846 -0.022606496
-0.36739764 -0.059110887 -0.1290849 0.19786249 0.53931504 0.6054198 -0.1985513 -0.116923295
0.040917743 0.09112162 -0.42538768 0.40326825 -0.33201367 0.008464612 0.0039199316 0.059039228
0.22326 0.16485131 -0.023791011 -0.25510195 0.13815951 -0.00015037107 0.4183784 0.19770586
-0.6707452 0.62877464 -0.5344288 0.15919802 0.14455493 0.14426658 -0.2730129 0.060879704
0.061017476 0.15699069 0.28609145 -0.66097045 -0.02737722 0.050936367 0.33893245 0.26829213
-0.3772256 -0.66056967 -0.6550265 -0.23912823 -0.091941394 -0.3744007 -0.2701128 0.41984525
0.51818246 -0.24661936 -0.16126917 0.2770471 -0.051777445 0.100940116 0.18825029 -0.11112925
-0.035362627 0.123619296 0.210708 -0.026709797 -0.38557118 -0.14191 -0.04173923 0.27888855
0.0477088 -0.13521077 -0.30586496 -0.045817062 0.022970023 0.51587355 -0.19926354 0.063303724
-0.11665942 0.29773757 -0.46484494 -0.40739286 0.12225838 0.06302594 0.50510156 -0.10899443
0.2932969 0.22956465 -0.31095034 0.68144304 0.14445542 -0.09438251 0.29064977 0.301368
0.10190738 0.08371939 0.28880578 -0.1617426 0.33503512 0.15471296 -0.809685 -0.2571912
0.01291088 0.44485822 0.37877443 0.23126262 0.026182761 -0.5114459 0.43299142 -0.29442796
0.059098095 0.09575746 0.28278008 -0.044295043 0.10864243 -0.38122588 -0.4685658 -0.6577525
0.42538783 0.3950506 0.05293286 0.21428645 0.0041691535 -0.115076184 0.054443266 -0.2919071

net.0.bias f4 [64]
00000000: cfe8 25bd 555b d63e b8dd 12be 6bdd 983e
00000010: 4143 75bd d849 1bbe 3b43 763e 8873 803e
00000020: f9e7 e3bd 7a5d 3dbe 7d1f 0cbe c069 df3e
00000030: e258 87be 3455 513d f676 e0be 3b8e 163f
00000040: 60d8 5bbe f12d 45be c963 b73e f9dd 813d
00000050: 4b08 96be bb43 2b3e 622a edbc 5957 b93d
00000060: 5037 cc3d 051d 21be 23db c13e 43a5 bc3e
00000070: bf2d 673e 5434 173f edb9 b13e c065 eebd
00000080: c8c2 b2be 4d3b 57be 09a7 323e 9321 d83e
00000090: 2b9d 5ebe 9847 3c3e d5ef 973e 14aa f7bd
000000a0: 8744 dc3e 9e53 9ebe d4f5 833e e8cf e13e
000000b0: 7dc6 22be 1bd5 443d 97c3 e9bd 48ac fabd
000000c0: 2cdd 5cbe 8def 783d c029 3bbe 792f 6a3e
000000d0: 6815 333e b17a 533d 195b c6bd aab2 bebe
000000e0: 3ffa 6a3e e3e7 b03d 0dac b03d ca19 953e
000000f0: acf5 eebd b9e5 54bc 0da8 f53e 0e12 123f
-0.040505227 0.41866556 -0.14342391 0.29856429 -0.05987859 -0.15164888 0.24049084 0.25088143
-0.1112823 -0.1849269 -0.13683887 0.43635368 -0.26435 0.051106647 -0.4384076 0.58810776
-0.2146926 -0.19255807 0.35818318 0.06341166 -0.29303202 0.16725056 -0.028950874 0.09049863
0.099714875 -0.15733726 0.378625 0.36844835 0.22576044 0.5906422 0.34712163 -0.11640501
-0.3491423 -0.21018715 0.17446531 0.42213115 -0.21739642 0.18386686 0.29675165 -0.12092987
0.43021032 -0.3092317 0.2577349 0.44103932 -0.1589603 0.048054796 -0.11414259 -0.12239891
-0.21568745 0.06077533 -0.18277645 0.22869672 0.17488635 0.05163068 -0.09685344 -0.37245685
0.22947024 0.08637979 0.08626566 0.29121238 -0.11667952 -0.012994223 0.47979775 0.570588

net.2.weight f4 [32, 64]
00000000: ac69 a2be 56a3 103e 293f 4e3e 952e 583e
00000010: 7ab8 0abd f4f6 d9bc 436f e4bc 3f92 183e
00000020: a873 92bd c741 033f 8bce 34be 6487 18bd
00000030: 8a47 083f ca92 533d dd11 983e 13d1 e1be
00000040: 3a91 a83e dd22 b43e cfcf f63d 9d6b fcbd
00000050: bee2 b03e 6b7c 72be 8b6a 4b3e afa7 d8be
00000060: 496f ca3c cf8b 4fbd e07b e3bd 45a4 3abc
00000070: 00a1 0e3e dd4e 5fbe da05 893e 4b2a 4fbe
00000080: 93e2 d03e 4af5 723e 0e05 febe 379c 2fbd
00000090: 75b6 aa3d a77d 743e b37d e43d da2c 8e3d
000000a0: 143c 51bd 3371 a93e 3ae4 4a3d 8f0a 1dbf
000000b0: 8d1f ab3d e391 bcbe 2499 093e 2e0f 7b3c
000000c0: e1ab 0dbe 017f 3c3e ca84 20bd 7fdc b0be
000000d0: 9982 813d 23d7 27be f23e 473d fc68 6cbd
000000e0: 67bb 2fbe 3650 ab3e 3dd6 00bd e9fa 3fbe
000000f0: 9195 6f3e d28f 683e 6208 f63d 9baa 04bf
00000100: cc73 73be 30bf 6d3e b050 913e 3908 1e3e
00000110: 4601 dfb8 1757 abbb 2c71 e2bc fbec 4a3e
00000120: 5ecb 8ebd 7d6f 0f3f de13 a4be 0a29 0ebe
00000130: 939a 0b3f 5c10 a93d 8d76 7c3e fbd6 afbe
00000140: 32a7 943e 26d5 cf3e 7135 853e 5f27 92bd
00000150: fa0a 8e3e 04f2 6fbe 4418 3b3e e90e e9be
00000160: 459c 41be 8bd5 8ebe ff90 07be 9ce5 b6bc
00000170: 5aea fb3d dcd4 8dbe ba57 9a3e d367 25be
00000180: 67fa 793e 8c1b 633e 602e f3be 4b9d 3d3e
00000190: 4044 253e 876f 723e 5fd8 bb3d c8b5 1b3e
000001a0: 9903 85bc 2f89 913e 866f 593e 1d38 d2be
000001b0: ae85 f63d 1eb8 11be 2b46 653e f41c cf3d
000001c0: 977b e7bd c6f8 3a3e d2d3 80bd 82dc c3bd
000001d0: 70f7 9d3d d297 66bd 2ca1 7fbe d9e0 54be
000001e0: b133 fdbd 15ff 893e bb7b 9a3d 4f30 4cbe
000001f0: 2a81 4f3e 02e9 893e fc3a a13d f91f e3be
00000200: eb2d 553e d24e 44bd e60a e9bd 27fa 56be
00000210: 3e1f b23d ce1b ee3d d6bb 2b3d 2223 8dbe
00000220: 6466 9e3e 6733 eebe 530a ca3e 101e 9a3e
00000230: ad94 0cbf 3123 a13d 55b4 febe 8813 0d3e
00000240: d4b4 9abe da3f bbbe a990 973e 5389 74bd
00000250: f15a 2fbe c200 f7bb d3ad 87be a2f3 50bc
00000260: 26c4 7a3e 221b 8b3e a38c a13e a003 29bc
00000270: 9ee1 20bd d2a5 2a3e 52e8 88bd 499e a43e
00000280: f958 b0be fb77 c7be 4c45 f0bd 7f88 173e
00000290: 12da 7bbe 6230 2fbe efac 4e3e ae24 b2bd
000002a0: 2246 923d 14c2 2dbe 996f c2bd 45ab 4e3c
000002b0: 17f0 c0bd eba3 433d 6717 e2bd 0789 603e
000002c0: 4d01 cc3d 7a72 36be fb9d 953d bb28 013d
000002d0: 68f5 50bd c2b6 633e 3ff1 7d3e f7ca 913d
000002e0: 0f94 47bd cff9 11be 4fcb 2e3e 84fc a63d
000002f0: af5f 87be 9b0d 48bd 8ca8 7b3e a870 15bd
00000300: 8e66 e53d cf29 37be 3a69 d9bd ef6c b1be
00000310: 7297 ad3b a44b 4d3e 9ac2 3f3d 2a01 b7be
00000320: 6c94 9d3e 3700 7f3c 8b35 773e d58f 5d3c
00000330: 07d6 b5bd 553f a7be 2f24 d1be eba1 9b3d
00000340: 952d 173d 1a93 f23d fdce 0d3e b696 7f3d
00000350: 0173 a6be a055 47bd b2dc 1fbe 6969 d23d
00000360: 5728 623d f88e 6e3e 27f6 8e3e 2064 123e
00000370: d3aa 87be 4c26 f5bc 6454 c9be 3efa ab3e
00000380: 2d1a b6bd a9d8 48be 3273 f63c 0411 393e
00000390: dfa7 40bd 2d57 833d 10b2 28be 3c0c 90bd
000003a0: 16b2 1f3e 122d 32be 8935 dfbb fe56 ea3d
000003b0: f1b8 afbd 7690 ee3c cdcf 05bd 35d4 603e
000003c0: c1dd 663e da0c b6be 6604 1c3e 169f 953c
000003d0: 454b d9bd 2563 843e 72a4 433e 2cee 7d3d
000003e0: 7036 0b3e 0fd2 76be 8876 423e e912 d3bc
000003f0: f6f2 debd 13bf 3e3d cf35 ae3d 96f1 f13d
-0.31721246 0.14124808 0.20141281 0.2111152 -0.033867337 -0.026607014 -0.027885085 0.14899538
-0.07150966 0.51272243 -0.17656915 -0.037238494 0.5323416 0.05165366 0.2970113 -0.44104823
0.329233 0.3518285 0.12051355 -0.12325213 0.3454799 -0.23680274 0.19864862 -0.42315432
0.024711268 -0.05067044 -0.11107612 -0.011391704 0.13928604 -0.21807428 0.26762277 -0.20230977
0.40797862 0.23726383 -0.4961323 -0.042873587 0.08335582 0.23876058 0.11156788 0.069421485
-0.051082686 0.33094177 0.04953406 -0.61344236 0.08355627 -0.36830053 0.13437325 0.015323443
-0.13835098 0.18407823 -0.039189138 -0.34543225 0.06323738 -0.16390662 0.048644014 -0.05771731
-0.17161332 0.33459634 -0.031454314 -0.18748058 0.23396899 0.22711113 0.12013318 -0.51822823
-0.23774642 0.23217463 0.28381872 0.15432824 -0.00010633706 -0.005228888 -0.027641855 0.19816963
-0.06972383 0.5602949 -0.32046407 -0.13882843 0.54532737 0.082550734 0.24654599 -0.34343705
0.2903381 0.40592307 0.26017335 -0.07136416 0.2774275 -0.23432165 0.18270975 -0.45519188
-0.18907268 -0.27897295 -0.13238905 -0.022326283 0.123005584 -0.2770146 0.30145055 -0.16152887
0.24411927 0.22178477 -0.4749632 0.18517034 0.16139317 0.23675357 0.09172129 0.15206063
-0.016237067 0.28424975 0.21233949 -0.41058436 0.12037216 -0.14230391 0.22390048 0.10112944
-0.1130287 0.18258962 -0.062904015 -0.09563543 0.077132106 -0.05629713 -0.24963826 -0.20788898
-0.12363375 0.26952425 0.07543131 -0.19940303 0.20264116 0.26935583 0.078725785 -0.4436033
0.20818298 -0.04792673 -0.11379032 -0.20993863 0.08697365 0.11626397 0.04192718 -0.27565867
0.30937493 -0.46523592 0.39461002 0.3010106 -0.5491436 0.0786804 -0.49746957 0.13776982
-0.30216086 -0.36572152 0.29602554 -0.059701275 -0.17124535 -0.007537932 -0.26499805 -0.012753399
0.24488887 0.27169138 0.3155261 -0.010315806 -0.039277665 0.16664818 -0.066849366 0.32152012
-0.3444288 -0.38958725 -0.11731967 0.14798163 -0.24594906 -0.171083 0.20183156 -0.08698402
0.07142283 -0.16968566 -0.09493942 0.012614076 -0.094207935 0.047763746 -0.1103962 0.21927272
0.099611856 -0.17817107 0.07305523 0.031532984 -0.051015288 0.22237685 0.2479906 0.071187906
-0.048725184 -0.1425545 0.17069744 0.08153632 -0.26440188 -0.0488411 0.24576014 -0.03648439
0.112012014 -0.17887042 -0.106157735 -0.34653422 0.0052975947 0.20048386 0.046816446 -0.35743076
0.307773 0.015564016 0.24141519 0.013523062 -0.08878713 -0.32665506 -0.40847918 0.07599243
0.036908705 0.11844464 0.13848491 0.06239959 -0.32509616 -0.048665643 -0.15611532 0.10274012
0.055214252 0.23296726 0.27922174 0.14296007 -0.26497516 -0.029925488 -0.39322197 0.33589357
-0.088917114 -0.196139 0.030084226 0.18072897 -0.047035094 0.06413112 -0.16474175 -0.070335835
0.15595278 -0.17400005 -0.006811802 0.11442374 -0.08580197 0.029121619 -0.032668877 0.2195595
0.2254553 -0.3555668 0.15236053 0.018264335 -0.1061006 0.2585689 0.191057 0.061994717
0.13594985 -0.24103568 0.18990529 -0.025765853 -0.10886185 0.04656894 0.08506357 0.11813657

net.2.bias f4 [32]
00000000: 87fd 923d 9aaa 093d c1ad fe3d a52c a9bc
00000010: 9085 dfbd 2108 c23d 5966 1f3e bb7a 463e
00000020: 2e48 36bd 1706 63bc 9a8b a33d 364e 533e
00000030: 9f7e dd3d da36 d6bd ee75 a4bc 7802 0cbd
00000040: a56e a93d cedf 0f3e ccd3 3c3e 6b33 e73d
00000050: 9429 823e 1e26 273e 390e 243e e17d 243e
00000060: 98d6 373e ea22 45bd f633 823e d621 2fbd
00000070: fb52 c23c bdbc 83bd 3e6e cabb 521e b93d
0.07177263 0.033609964 0.12435485 -0.020651171 -0.10914147 0.09474207 0.15566386 0.19382755
-0.04450243 -0.013856432 0.07985611 0.20635304 0.10815167 -0.10459681 -0.020075765 -0.034182042
0.08273057 0.14050218 0.18440169 0.11289104 0.25422347 0.16323134 0.1602105 0.16063644
0.17952955 -0.048129 0.25430268 -0.042756878 0.023721209 -0.06432483 -0.0061776927 0.09038986

net.4.weight f4 [1, 32]
00000000: 969e 0abf 93b5 b4be 32b6 af3e 1e0f a83e
00000010: ea46 21bf 7d30 ac3e 6721 c3be 34de 963e
00000020: 0075 7abd 2375 01bf 61a5 cabe 25a9 d3be
00000030: a30e bd3e 63b5 063e 2464 aabe e207 44bf
00000040: fb4c f1be aeec 863e 42dd b63e 0d32 a1be
00000050: 2ed9 803e 1fdb a03e 288a d33e ae91 acbe
00000060: 0a1f 6d3e 518c e3be 18e6 813e 17ae b83e
00000070: ee09 b53e 5db2 03bf 2cce b93e baae 9e3e
-0.5414823 -0.3529478 0.34318691 0.32824033 -0.6299883 0.33630744 -0.3811142 0.29466403
-0.061146736 -0.5056936 -0.395793 -0.41339985 0.3692523 0.13155131 -0.33279526 -0.7657453
-0.47129044 0.26352447 0.3571568 -0.31483498 0.25165695 0.31417176 0.41316342 -0.33704895
0.23156372 -0.4444299 0.2537086 0.3607032 0.35359138 -0.51444036 0.3629011 0.3099268
