models/mlp_spy_itm.pt (torch, 13637 bytes, 5 tensors)

net.0.weight f4 [64, 7]
000000 5f 70 09 3f b3 58 fa be 81 34 46 3d 78 f7 9b 3e
       0.5368709 -0.48895797 0.048389915 0.3046224
000010 e7 ef 91 bd 6b b1 4b bd 91 a6 db 3d 4d be 3a be
       -0.07125836 -0.049729746 0.107251294 -0.18236656
000020 55 fe 28 3f ae 2a fc bc a4 ff 9d 3d e4 43 10 bf
       0.6601308 -0.03078207 0.07714775 -0.5635359
000030 b4 05 2f 3c ec 07 d0 bb 47 d0 af 3e 40 8a 83 be
       0.010682512 -0.0063486006 0.3433859 -0.25691414
000040 f1 d4 e9 3e 62 c0 78 3e 98 39 de 3c a9 b6 95 3e
       0.45670274 0.24292138 0.027127072 0.2924092
000050 5b 95 90 3d fe 41 89 be 0e 17 1e bf b9 1c d5 bd
       0.07059737 -0.2680816 -0.6175393 -0.10405869
000060 11 7c cc 3e 88 0e ab 3e df bb 7d 3e 4f 48 14 3e
       0.39938405 0.33409524 0.24778698 0.14480709
000070 8c 1a 13 3f 28 ff 06 bf e4 ff c1 3c 71 b6 3c 3d
       0.5746238 -0.5273309 0.023681588 0.046072427
000080 44 b1 26 3e fc 10 b9 3c 14 de 2b 3d 8f 37 a3 bc
       0.16278559 0.022591107 0.041959837 -0.019923953
000090 77 1f bb be 99 2b 9a 3d 5c ac 19 3e 7a 31 0f 3f
       -0.36547443 0.07527847 0.15007156 0.5593487
0000a0 e7 d2 19 3c 79 7f 8c bf ec e5 09 3e 0f 32 ac 3e
       0.009388662 -1.0976402 0.13466614 0.33631942
0000b0 a9 34 3c 3e f4 e1 80 3d e6 52 bd be d6 4b 93 3c
       0.18379463 0.06293097 -0.3697731 0.017980497
0000c0 43 67 ab 3e d1 3f 04 3f d7 3f 4c bc aa 12 b8 bd
       0.3347722 0.51659876 -0.0124663925 -0.08987935
0000d0 a3 cc ba 3e 47 8b be bd c3 87 c8 3c 53 5e 0f 3e
       0.3648425 -0.09303909 0.024478799 0.14000826
0000e0 46 73 2e 3c 25 4d 86 be a8 bc 4d 3d 0e f0 19 3e
       0.0106476005 -0.26230732 0.050228745 0.1503298
0000f0 54 a4 e7 3e 80 93 3b 3c 0a fc 79 bf 0d 21 88 3e
       0.4524256 0.011448741 -0.97650206 0.26587716
000100 61 c2 af 3e 52 07 6c 3e 79 e9 a7 3e 7a fd a0 be
       0.34327987 0.23049667 0.32795313 -0.31443387
000110 e8 e3 20 be 3f 6e 2f be fa 7c 75 be 02 a6 25 3f
       -0.1571194 -0.171319 -0.23973456 0.6470643
000120 36 3c 0a bd 2f bc 7a 3c 7c 37 c2 3d 11 b7 b5 bc
       -0.033748828 0.0153036555 0.09483239 -0.02218202
000130 4c a0 06 bf 24 f7 06 3e 85 ea f9 be 55 c5 8e 3e
       -0.52588344 0.13180214 -0.48811737 0.27884927
000140 ec 6d 36 3e 82 1e 34 bc 2f 64 af bd 9e 2d 98 be
       0.1781537 -0.010993602 -0.085640304 -0.29722303
000150 f2 c1 4c bd 1c 64 2e bf ed f8 6f bf b9 4b 18 3e
       -0.04998965 -0.68121505 -0.93739206 0.14872636
000160 23 10 64 bd 41 87 63 3e 74 7e 2d 3f c5 5e 09 3d
       -0.05567945 0.22219564 0.6777108 0.033537645
000170 d3 a9 19 be 83 c9 32 3d ec aa 1b 3d bf 48 83 3e
       -0.15006189 0.043649208 0.0380048 0.25641438
000180 04 2c 78 3d ee 77 44 bf 37 a6 14 3e aa fd 35 3f
       0.06058885 -0.767455 0.14516531 0.71090186
000190 92 5e 50 be 2b 9f 4c 3d 42 f4 06 bf e4 f7 4e 3b
       -0.20348576 0.049956482 -0.5271646 0.003158086
0001a0 d5 cc b4 3e 51 5c 01 be 9c 37 2b 3f 1c eb 8c 3d
       0.35312524 -0.12632872 0.6688173 0.06880781
0001b0 15 19 69 bd bf db d1 bb 43 13 90 3c 6d 40 0e bf
       -0.056908686 -0.0064043696 0.01758731 -0.55567056
0001c0 49 99 36 3e 79 8b 14 bf 46 66 0b bf 17 86 a1 3d
       0.17831911 -0.5802532 -0.5445293 0.07886904
0001d0 9d 0a 1f 3e 66 ab 3d bf 4f 40 8c 3e 22 20 8d 3e
       0.15531392 -0.7408966 0.27392814 0.27563578
0001e0 58 3a 80 be 3f 40 96 3e 60 b0 3a be 4c 8e f7 3e
       -0.25044513 0.2934589 -0.18231344 0.4835075
0001f0 5a 6a 38 bc d7 e6 5c bf 7c b9 f1 3e 25 8c e0 be
       -0.011255825 -0.86289734 0.47211826 -0.43856922
000200 a4 16 6f 3d 7a e9 9f 3d e1 2b 4c 3e 3a 69 18 bc
       0.0583712 0.07808204 0.19938613 -0.009302432
000210 2c f6 04 3d 84 db f5 be 2f 1a 59 3e 89 68 01 3d
       0.03246133 -0.4801904 0.21201394 0.031593833
000220 13 cb c6 be 2d ec 24 3b 64 39 10 3e 07 dc 0e bd
       -0.38826808 0.0025165186 0.14084393 -0.034877803
000230 05 ee c3 be 28 00 c6 be 33 83 8c bd f4 4d 09 3f
       -0.38267532 -0.38671994 -0.06860962 0.5363457
000240 26 c9 e8 3e bc ab 09 3c 41 0a 96 bd da 6f b0 3e
       0.45465964 0.008402761 -0.073261745 0.34460336
000250 cd 31 8c 3e 89 51 f7 3e bb b0 8c be f5 9f 63 3e
       0.27381745 0.48304394 -0.27478585 0.22228988
000260 3c 9c 3a 3a ba 32 00 3f b2 a6 1a 3f fd 4f 2e bf
       0.00071186177 0.500774 0.60410607 -0.680908
000270 f3 c4 4d 3e c1 22 7d 3e f1 ce c4 3e 02 1b 83 bd
       0.20094661 0.24720289 0.38439134 -0.06401636
000280 9f c1 cf 3d 4c 10 aa 3e 14 34 d7 be e8 1a b9 3e
       0.10144352 0.3321556 -0.4203192 0.3615334
000290 6d df e3 be 1d 20 9d 3e 6d 97 21 bc 03 dc a0 3d
       -0.44506398 0.30688563 -0.009862763 0.07854464
0002a0 93 9e f0 bd 89 11 be 3e a6 ca b3 3e 8a 4a a5 bd
       -0.11748996 0.37122753 0.35115546 -0.08070858
0002b0 a9 12 8d be 29 fb 19 3e 73 15 f4 3e c2 c1 2f bd
       -0.275533 0.15037216 0.47672614 -0.04290939
0002c0 ce 24 88 bd 4e 7c fb be 00 f4 f6 3e 69 f7 59 be
       -0.06647645 -0.49118274 0.48233032 -0.21285786
0002d0 e5 d3 75 3e 27 3a 93 be 31 27 9c be 4a e8 1b 3e
       0.24006613 -0.28755304 -0.3049865 0.1522533
0002e0 1b aa 7d 3e e7 eb fb 3e ba 8f be 3d 75 0a 17 3e
       0.24771921 0.49203417 0.093047574 0.14750083
0002f0 1e 11 29 be 0e a3 67 bd c0 ae e4 be c3 29 d4 bc
       -0.16510436 -0.056551985 -0.44664574 -0.02589882
000300 9b ab 56 be ba b3 a3 3e 8f 30 93 be 0e 7e 5f be
       -0.209639 0.31973058 -0.28747985 -0.2182543
000310 70 f9 0b bf aa 87 ca 3e 31 6d b8 bd c6 99 b0 be
       -0.54677486 0.39556628 -0.090052016 -0.3449232
000320 26 88 d9 be 32 56 fc 3d d2 bb bf 3e 11 a7 6e 3e
       -0.42486686 0.12321128 0.37447983 0.23305918
000330 7c 65 81 3e 99 6c c1 3d 4e 75 02 bf bb 57 2d bf
       0.2527274 0.094445415 -0.5096024 -0.6771199
000340 ed 9b 8c bc bf 75 a8 be 81 0e bd be d4 a4 98 3e
       -0.017164195 -0.32902333 -0.36925128 0.29813254
000350 f6 1f 99 bc 99 5a 70 be dd c6 7d bd a6 20 7d 3d
       -0.018691998 -0.2347206 -0.06195723 0.061798714
000360 d9 6a 0b 3f 36 26 48 3e 2e 50 18 bf 40 50 56 bf
       0.5445991 0.19545826 -0.59497344 -0.837162
000370 cd bc d9 3d 35 e0 12 be 2e 31 64 be 2c e0 30 3e
       0.10631714 -0.1434334 -0.22284386 0.17273015
000380 5e 02 f9 3e 75 05 33 bf cd be ac be 4c f9 ec be
       0.4863462 -0.699302 -0.3373932 -0.46283948
000390 c0 13 c6 3d da 79 ee 3d ad 7f b1 3d 37 d2 0f 3d
       0.09671736 0.11644335 0.0866693 0.035112586
0003a0 ae a5 60 be 8d bc 4b 3f 0a f4 a1 3e 4b 1f c1 3e
       -0.21938202 0.7958458 0.316315 0.37719187
0003b0 fa 40 05 3e 23 35 12 be 72 ad 90 3e 2d b0 08 3d
       0.13013068 -0.14278083 0.28257328 0.03337114
0003c0 c9 18 1b 3f 30 37 21 3f 99 3a 34 3e 69 eb ba be
       0.60584694 0.62974834 0.17600478 -0.3650773
0003d0 cf 20 9c 3e 44 2c c0 3e ce 93 0b 3f e1 5a 95 3b
       0.3049378 0.37533772 0.5452241 0.0045579528
0003e0 54 72 de bd dd 48 06 bf 14 d8 8c 3d 76 c9 99 be
       -0.1086165 -0.5245493 0.06877151 -0.30036515
0003f0 ad b7 b9 3e 85 bc e2 be cc 84 8f be 1c ab b8 bd
       0.36272946 -0.44284454 -0.28031003 -0.090170115

net.0.bias f4 [64]
000000 52 c6 8a 3e 8a 40 e4 be 9c 88 00 be 82 91 b1 be
       0.2710443 -0.4458049 -0.12552112 -0.34681326
000010 70 0f 2e 3e 32 54 8f 3d 8c 94 fc 3c 49 b3 62 bd
       0.16998076 0.06998481 0.030832551 -0.05534676
000020 5a 2b ad bc 96 eb 1b 3e 75 f9 4b 3d 56 45 0b 3f
       -0.021138836 0.15226588 0.049798448 0.54402673
000030 61 0a 4c bd fa fb 25 be 60 11 c8 be 84 04 96 bd
       -0.049814586 -0.16209403 -0.39075756 -0.0732508
000040 5e d4 d9 3d 36 b3 97 bd 82 34 29 3e f0 21 12 be
       0.10636209 -0.07407229 0.16523936 -0.14270759
000050 7e 43 60 be 50 a2 28 3e e8 76 0b 3f 52 1f ae be
       -0.21900746 0.16468167 0.5447831 -0.3400827
000060 b9 2a a1 be e2 d7 7f bc e1 2f 03 3f f6 a1 00 3f
       -0.31477907 -0.015615435 0.5124493 0.5024713
000070 0e b7 e6 bd a8 2c 43 3c 26 7a e6 3d 23 a7 99 3c
       -0.11265384 0.011912502 0.11253767 0.018756455
000080 76 ec b5 be 7a 78 43 3d f2 d3 78 be 0f f7 e7 be
       -0.35531968 0.047722317 -0.242996 -0.45305678
000090 9f 07 ba 3e 1d c0 fd 3e e7 63 e4 be d0 42 a1 3e
       0.3633394 0.49560633 -0.4460747 0.31496286
0000a0 fa 15 12 3e e0 be c8 3c ec 23 e8 3c 62 da d2 3d
       0.14266196 0.024505079 0.028337441 0.102955595
0000b0 7b 05 03 3f 6a ad af be 33 5a 32 be 71 6d 51 be
       0.5118024 -0.34311992 -0.17417221 -0.20451905
0000c0 3f b9 6a 3e 25 da 8b be 89 96 65 3e 7b cc 6b 3e
       0.22922228 -0.2731487 0.22420706 0.23027222
0000d0 f9 e0 07 3d 17 be d4 3e fb 87 bd 3e 24 0e 9a be
       0.033173535 0.41551277 0.37017807 -0.30088913
0000e0 4f e7 da bd 3c 35 bf be bc 3b 19 be 01 73 8d be
       -0.1068865 -0.37345302 -0.14964193 -0.27626804
0000f0 49 97 4c be db d0 99 be 21 7f 21 3f af 3d bc 3e
       -0.19979586 -0.30042157 0.6308461 0.3676581

net.2.weight f4 [32, 64]
000000 1c ed 61 3e 62 c9 48 3e f4 c0 8f 3b 43 32 65 be
       0.22063106 0.19608071 0.0043870155 -0.22382455
000010 63 c2 50 3e 7a a7 6f bd 13 ff 69 3e 78 5f a9 3d
       0.20386653 -0.058509327 0.2285121 0.08270162
000020 51 4d e6 bd 5f 4f 5a 3d bc 45 43 bd 9b b4 41 3e
       -0.11245216 0.05329835 -0.047673926 0.18916552
000030 cf a4 f1 3d 3c 54 b0 bd 4d 9d b3 bd 7d a6 ba be
       0.11799013 -0.086098164 -0.08770237 -0.36455145
000040 03 dd 87 be 7e f0 93 be c1 9a 3e 3e 40 35 1f 3e
       -0.26535806 -0.28894418 0.18613721 0.15547657
000050 d3 f7 20 bf 21 31 36 3e 20 8f ba 3c cf 9d af 3e
       -0.6287815 0.17792179 0.022773325 0.34300086
000060 03 a5 7f 3e ac 63 97 3d ea 86 44 3d 4f ee bf 3d
       0.2496529 0.07392058 0.047980227 0.09371626
000070 bb fb a3 3e bc 08 f9 bd d3 37 54 3e 25 19 1e be
       0.32027993 -0.12159869 0.2072442 -0.1543928
000080 d3 0a 41 be 1d ad 9c be 78 21 8f 3e 77 58 4c bd
       -0.18851785 -0.30600825 0.27955222 -0.049889054
000090 20 4d 3a 3e 94 2c 31 3d ff ec 15 3f c1 e1 2b 3e
       0.18193483 0.043255404 0.5856475 0.16785337
0000a0 96 71 55 3e bd 08 8c bd d4 c0 01 3f 0f d9 46 be
       0.20844111 -0.06837604 0.5068486 -0.19418739
0000b0 ef f8 e2 3c 53 3f 05 be db 3c 93 3d 70 47 30 be
       0.027706591 -0.13012438 0.07189342 -0.17214751
0000c0 52 92 68 3e e9 2a 08 bf a4 a0 87 3e 87 d5 c5 be
       0.22712067 -0.53190476 0.26489747 -0.3863947
0000d0 9d 42 1b 3e 2b 1b 9d bd f6 58 46 3e f8 cf e5 3b
       0.1516213 -0.076711975 0.19369873 0.007013317
0000e0 a2 7a ad bd 46 6b 49 3e c4 9f 0d 3e de 36 b7 3e
       -0.08470656 0.19669828 0.13830477 0.35784048
0000f0 3f 78 b2 be bc 4b 42 3f 82 29 0a bd ba 83 d5 3c
       -0.34857365 0.7589681 -0.03373099 0.026063789
000100 7a 12 19 be 17 95 00 bf ad 1f b4 bd 81 e9 f5 3d
       -0.14948454 -0.50227493 -0.08795104 0.12007428
000110 f8 6d 0b be 52 c8 ad bd 31 38 3c be 68 9d 8a be
       -0.13616168 -0.08485474 -0.1838081 -0.27073216
000120 95 9d a6 3d ed ea 89 be db 70 48 bc b3 e8 a9 bd
       0.08135525 -0.26937047 -0.012233938 -0.08296337
000130 66 53 8e 3e 90 81 29 bd 0a 49 cd be e1 80 88 3e
       0.27798003 -0.041383326 -0.40094787 0.26660827
000140 c5 6a 96 3d 7e 49 c5 3e 9b 53 67 be 7d d2 ce bd
       0.073445834 0.38532633 -0.22590487 -0.10098741
000150 c8 80 47 3e d2 d4 e3 3d 3b 2e 11 3e 16 91 85 3d
       0.1948272 0.11124577 0.14177792 0.065218136
000160 66 57 2c be 5c e1 3d 3e 05 74 1f 3d e1 42 08 3e
       -0.16830215 0.18542999 0.038929004 0.13306762
000170 74 b2 8f bc 15 ad 53 3d fa 2f 8b bd 62 75 76 3e
       -0.017541148 0.051678736 -0.0679626 0.24068215
000180 0c 77 eb bd eb ff 84 3e 8a 04 15 be 21 0e cb be
       -0.11497316 0.259765 -0.14552513 -0.39659217
000190 d3 ec 90 be b7 55 07 be fd f2 d5 be e6 02 2e be
       -0.28305683 -0.13216291 -0.41786948 -0.16993293
0001a0 08 30 64 bd df e6 78 3e bb 05 f8 be d2 78 ab bd
       -0.05570987 0.2430682 -0.48441872 -0.08372654
0001b0 94 17 47 3d 28 07 20 be 76 92 c3 3d ac c6 83 3c
       0.04860647 -0.1562773 0.095494196 0.016085945
0001c0 62 1a 79 3d c9 97 55 3e f8 d1 cd bd fe 7e 89 bd
       0.060816176 0.20858683 -0.10049814 -0.06713675
0001d0 41 33 a9 3e 72 1f ac 3d 23 e6 f8 3d 93 de dc 3d
       0.33046916 0.08404435 0.1215327 0.1078464
0001e0 af 32 95 3e 99 58 35 be 68 aa 63 be 09 72 0c bf
       0.2914023 -0.17709579 -0.22232974 -0.54861504
0001f0 14 d3 87 3e e6 ae 0d bc 23 fd fa 3d 6c ab 4f be
       0.26528227 -0.008647656 0.12255313 -0.20280236
000200 41 b7 4e be 33 df 11 3d 65 f8 dc bb 40 6e 87 3e
       -0.20187093 0.03561325 -0.006743478 0.26451302
000210 88 4e 0a bf 52 37 a2 3d f3 d3 a9 be 6e 02 48 be
       -0.5402608 0.07920708 -0.33169517 -0.19532177
000220 d3 02 f4 bb 01 27 5d be 97 4a 33 3e 19 cd e6 bd
       -0.0074466257 -0.2159691 0.17508923 -0.11269588
000230 70 ce d6 3c 60 cf c0 3d 2a 71 95 3e 09 54 99 3e
       0.026221484 0.09414554 0.291879 0.29946926
000240 0d 3f 9d 3e 96 fa f9 3e 94 e4 20 bf 40 2e 17 bd
       0.30712166 0.48823994 -0.6284878 -0.03690934
000250 7b c2 9c 3e b9 24 db be c6 49 b4 be 44 89 67 be
       0.30617127 -0.42801455 -0.35212535 -0.22610956
000260 30 81 b1 be bb b1 7a 3e 5e 57 f3 3d c6 48 17 3e
       -0.34668875 0.24481861 0.11881898 0.14773855
000270 99 67 56 be 19 00 47 3e c2 4b b5 be 53 71 fc 3e
       -0.20937957 0.19433631 -0.3540936 0.4930521
000280 91 64 01 3f 0d 17 a6 3e 68 91 67 bc 5b b7 30 3e
       0.5054408 0.3243946 -0.014133789 0.17257445
000290 9a 32 d6 bd b5 11 bd bc 55 58 7f bd ef 49 90 be
       -0.1045887 -0.023079732 -0.0623401 -0.28181407
0002a0 dc a9 7b be 5b 1e a2 3e 09 ae 05 bf e4 75 6c 3e
       -0.24576515 0.31663784 -0.5221868 0.23091847
0002b0 35 b1 3d be 90 d5 b7 3e 22 75 d5 3d 39 ac 80 3e
       -0.1852463 0.35905123 0.10422732 0.25131395
0002c0 19 22 1f 3c 45 83 05 3f 66 55 8a bd 33 20 d7 3e
       0.009712719 0.52153426 -0.0675457 0.42016754
0002d0 ad 31 38 3d 11 b7 b1 3d 0f 23 2f bd 54 3e e5 3d
       0.04496925 0.08677495 -0.042758044 0.11193529
0002e0 7c 4e b6 3e e0 07 c3 bd 03 55 18 be a7 fb 2c bf
       0.35606754 -0.095229864 -0.1487618 -0.6757149
0002f0 82 37 11 3f f8 f5 4e be 52 e2 92 3d 36 5a c8 bd
       0.56725323 -0.20211017 0.071720734 -0.09782831
000300 ab 77 20 3e 9a b3 67 3d ed 6f 42 3e f5 f5 63 be
       0.1567065 0.056567766 0.18988009 -0.22261794
000310 2b 1e 71 3e 12 0b 67 bf 51 29 f8 3d 15 b0 32 3e
       0.23546664 -0.90251267 0.121172555 0.17449982
000320 98 fc 68 bf 01 b8 19 3e 44 64 10 be 7d b7 38 3c
       -0.9101043 0.15011598 -0.14100748 0.011274216
000330 d0 09 c2 3e b3 7b fe bd 61 e6 89 be 83 5c 29 be
       0.3789811 -0.124259375 -0.26933578 -0.16539197
000340 2a a3 9e bd 46 e4 8b be 82 21 42 3e 12 43 4c 3e
       -0.07745965 -0.27322596 0.18958095 0.1994746
000350 c6 ac 24 bd 36 3f 92 3d c2 61 1a 3d 92 0d a6 3e
       -0.040203832 0.07140963 0.037690885 0.32432228
000360 99 88 15 3e d0 ff 15 be a3 6a 53 be 8e 18 8c be
       0.14602889 -0.14648366 -0.20646147 -0.27362484
000370 a0 91 6d 3e 62 af de 3d 46 b5 83 3e 6f 3b 8a 3c
       0.23200083 0.10873295 0.25724238 0.016874043
000380 04 75 9c be 4c 16 30 be bd f8 70 3e cb 9b 15 be
       -0.30558026 -0.17196006 0.23532386 -0.14610212
000390 3e 0a 7a 3e 2b a6 ec 3d 29 8c 20 3f e9 ff b4 3d
       0.2441797 0.115551315 0.6271387 0.088378735
0003a0 55 31 39 3e 52 b2 d6 be 37 b6 ad 3e 7f 85 3b be
       0.18085225 -0.41932923 0.3392808 -0.18312643
0003b0 72 b7 32 bc 7e b8 7a be c6 7c 9d 3e 1a 68 f1 bd
       -0.010907995 -0.2448444 0.30759257 -0.11787434
0003c0 3a 55 06 3e b8 30 17 bf 48 9a 84 3e 71 b5 c5 bd
       0.13118449 -0.59058714 0.25898957 -0.09653748
0003d0 58 1d 8d 3e 93 63 df bc 26 a5 7c be 14 70 1c be
       0.2756145 -0.02726916 -0.24672374 -0.1527713
0003e0 88 d5 a9 3e fb 9e a9 3e 01 2d 24 3e a0 41 48 3e
       0.33170724 0.33129105 0.16032793 0.19556284
0003f0 70 c4 2f 3d 4b d5 0f 3f 4a bc c1 be 5e 7a 2c 3e
       0.042911947 0.56184834 -0.37838966 0.16843554

net.2.bias f4 [32]
000000 3f ab 68 3e 8a 81 9a 3d c3 cf b0 3d 37 1f 61 bd
       0.22721575 0.07544239 0.086333774 -0.05496141
000010 53 15 94 bd 58 bd 3a 3e b5 ff 22 bb a9 dc 97 be
       -0.0723063 0.18236291 -0.0024871652 -0.29660538
000020 9f 50 dc bc e1 f3 ea bd ff 13 0e 3e d9 e3 08 3e
       -0.026893912 -0.114722975 0.13874815 0.13368167
000030 03 04 ff 3d cf ce ed 3d d7 ea 4b be e7 f2 a9 3e
       0.12451937 0.11611711 -0.19913803 0.33193132
000040 d7 f6 20 3e 7b 06 ce bc 30 18 2e be 6e 83 a9 3d
       0.15719162 -0.025149575 -0.17001414 0.08277021
000050 27 66 b2 3d 45 80 0a 3e 6b 18 14 3e 12 7a 4b 3e
       0.0871089 0.13525493 0.1446244 0.19870785
000060 00 3a a0 bc 00 b7 dc 3c 67 e2 31 3e 2f ff ed bd
       -0.019558907 0.02694273 0.17371522 -0.11620938
000070 c0 c2 40 bd 87 ec 35 3e f0 8a 1f 3d f8 bc 7f 3c
       -0.047060728 0.1776601 0.03895086 0.0156090185

net.4.weight f4 [1, 32]
000000 8e 99 ec 3e 8d 7e c2 be 69 75 c4 be 96 8f d6 3e
       0.46210903 -0.37987176 -0.38370827 0.41906422
000010 b0 54 0e bf be 6c a1 3e b3 03 1d 3f 15 25 85 bf
       -0.5559797 0.31528276 0.6133377 -1.0401942
000020 c0 6f 31 bf 0c 42 f5 be 17 d6 b7 be d9 5f d3 3e
       -0.6931114 -0.47901952 -0.35905525 0.41284063
000030 28 56 9b 3e 97 79 d5 3e 48 96 5c bf 29 cc 0e bf
       0.3033917 0.41694328 -0.8616681 -0.55780274
000040 35 65 f6 3e 7f 0b 10 3f ab 4c f4 3e 56 18 19 3f
       0.4812409 0.5626754 0.47714743 0.5980276
000050 cd f5 43 bf b0 46 bb 3e 07 3d bc be 28 00 f9 3e
       -0.7654694 0.36577368 -0.3676531 0.48632932
000060 61 33 e7 3e 57 2e d5 be 08 f7 c8 3e 2f 8f fb be
       0.45156386 -0.41636917 0.3925097 -0.49132678
000070 8a e6 0d be c3 e9 c2 be 0d ca f2 be 6c 0f 0d 3f
       -0.13857475 -0.3806897 -0.47419778 0.55101657
